…
uri":"https://localhost:8080/"},"id":"SddRODSLcSbX","executionInfo":{"status":"ok","timestamp":1658511589234,"user_tz":-480,"elapsed":3267,"user":{"displayName":"黃子庭","userId":"08688763290107689521"}},"outputId":"b65dc4e6-7f3a-4839-9617-95d52bfe0727"},"execution_count":null,"outputs":[{"output_type":"stream","name":"stdout","text":["Model: \"sequential\"\n","_________________________________________________________________\n"," Layer (type)                Output Shape              Param #   \n","=================================================================\n"," conv2d (Conv2D)             (None, 26, 26, 32)        320       \n","                                                                 \n"," conv2d_1 (Conv2D)           (None, 24, 24, 64)        18496     \n","                                                                 \n"," max_pooling2d (MaxPooling2D  (None, 12, 12, 64)       0         \n"," )                                                               \n","                                                                 \n"," dropout (Dropout)           (None, 12, 12, 64)        0         \n","                                                                 \n"," flatten (Flatten)           (None, 9216)              0         \n","                                                                 \n"," dense (Dense)               (None, 256)               2359552   \n","                                                                 \n"," dropout_1 (Dropout)         (None, 256)               0         \n","                                                                 \n"," dense_1 (Dense)             (None, 10)                2570      \n","                                                                 \n","=================================================================\n","Total params: 2,380,938\n","Trainable params: 2,380,938\n","Non-trainable params: 0\n","_________________________________________________________________\n"]}]},{"cell_type":"code","source":["# 編譯: 選擇損失函數、優化方法及成效衡量方式\n","model.compile(loss=keras.los
…
